…
2019-05-30 18:34:22.122529: I tensorflow/core/common_runtime/gpu/gpu_device.cc:1003] 0:   N
2019-05-30 18:34:22.127308: I tensorflow/core/common_runtime/gpu/gpu_device.cc:1115] Created TensorFlow device (/job:localhost/replica:0/task:0/device:GPU:0 with 3004 MB memory)i bus id: 0000:01:00.0, compute capability: 6.1)
Model is getting ready for compiling
__________________________________________________________________________________________________
Layer (type)                    Output Shape         Param #     Connected to
==================================================================================================
input_1 (InputLayer)            (None, 32, 32, 3)    0
__________________________________________________________________________________________________
conv2d_1 (Conv2D)               (None, 32, 32, 16)   432         input_1[0][0]
__________________________________________________________________________________________________
batch_normalization_1 (BatchNor (None, 32, 32, 16)   64          conv2d_1[0][0]
__________________________________________________________________________________________________
activation_1 (Activation)       (None, 32, 32, 16)   0           batch_normalization_1[0][0]      
__________________________________________________________________________________________________
conv2d_2 (Conv2D)               (None, 32, 32, 128)  18432       activation_1[0][0]
__________________________________________________________________________________________________
batch_normalization_2 (BatchNor (None, 32, 32, 128)  512         conv2d_2[0][0]
__________________________________________________________________________________________________
activation_2 (Activation)       (None, 32, 32, 128)  0           batch_normalization_2[0][0]      
__________________________________________________________________________________________________
conv2d_3 (Conv2D)               (None, 32, 32, 128)  147456      activation_2[0][0]
__________________________________________________________________________________________________
conv2d_4 (Conv2D)               (None, 32, 32, 128)  2048        activation_1[0][0]
__________________________________________________________________________________________________
add_1 (Add)                     (None, 32, 32, 128)  0           conv2d_3[0][0]
                                                                 conv2d_4[0][0]
__________________________________________________________________________________________________
batch_normalization_3 (BatchNor (None, 32, 32, 128)  512         add_1[0][0]
__________________________________________________________________________________________________
activation_3 (Activation)       (None, 32, 32, 128)  0           batch_normalization_3[0][0]
__________________________________________________________________________________________________
conv2d_5 (Conv2D)               (None, 32, 32, 128)  147456      activation_3[0][0]
__________________________________________________________________________________________________
batch_normalization_4 (BatchNor (None, 32, 32, 128)  512         conv2d_5[0][0]
__________________________________________________________________________________________________
activation_4 (Activation)       (None, 32, 32, 128)  0           batch_normalization_4[0][0]
__________________________________________________________________________________________________
conv2d_6 (Conv2D)               (None, 32, 32, 128)  147456      activation_4[0][0]
__________________________________________________________________________________________________
add_2 (Add)                     (None, 32, 32, 128)  0           conv2d_6[0][0]
                                                                 add_1[0][0]
__________________________________________________________________________________________________
batch_normalization_5 (BatchNor (None, 32, 32, 128)  512         add_2[0][0]
__________________________________________________________________________________________________
activation_5 (Activation)       (None, 32, 32, 128)  0           batch_normalization_5[0][0]
__________________________________________________________________________________________________
conv2d_7 (Conv2D)               (None, 16, 16, 256)  294912      activation_5[0][0]
__________________________________________________________________________________________________
batch_normalization_6 (BatchNor (None, 16, 16, 256)  1024        conv2d_7[0][0]
__________________________________________________________________________________________________
activation_6 (Activation)       (None, 16, 16, 256)  0           batch_normalization_6[0][0]
__________________________________________________________________________________________________
conv2d_8 (Conv2D)               (None, 16, 16, 256)  589824      activation_6[0][0]
__________________________________________________________________________________________________
conv2d_9 (Conv2D)               (None, 16, 16, 256)  32768       activation_5[0][0]
__________________________________________________________________________________________________
add_3 (Add)                     (None, 16, 16, 256)  0           conv2d_8[0][0]
                                                                 conv2d_9[0][0]
__________________________________________________________________________________________________
batch_normalization_7 (BatchNor (None, 16, 16, 256)  1024        add_3[0][0]
__________________________________________________________________________________________________
activation_7 (Activation)       (None, 16, 16, 256)  0           batch_normalization_7[0][0]
__________________________________________________________________________________________________
conv2d_10 (Conv2D)              (None, 16, 16, 256)  589824      activation_7[0][0]
__________________________________________________________________________________________________
batch_normalization_8 (BatchNor (None, 16, 16, 256)  1024        conv2d_10[0][0]
__________________________________________________________________________________________________
activation_8 (Activation)       (None, 16, 16, 256)  0           batch_normalization_8[0][0]
__________________________________________________________________________________________________
conv2d_11 (Conv2D)              (None, 16, 16, 256)  589824      activation_8[0][0]
__________________________________________________________________________________________________
add_4 (Add)                     (None, 16, 16, 256)  0           conv2d_11[0][0]
                                                                 add_3[0][0]
__________________________________________________________________________________________________
batch_normalization_9 (BatchNor (None, 16, 16, 256)  1024        add_4[0][0]
__________________________________________________________________________________________________
activation_9 (Activation)       (None, 16, 16, 256)  0           batch_normalization_9[0][0]
__________________________________________________________________________________________________
conv2d_12 (Conv2D)              (None, 8, 8, 512)    1179648     activation_9[0][0]
__________________________________________________________________________________________________
__________________________________________________________________________________________________
activation_10 (Activation)      (None, 8, 8, 512)    0           batch_normalization_10[0][0]
__________________________________________________________________________________________________
conv2d_13 (Conv2D)              (None, 8, 8, 512)    2359296     activation_10[0][0]
__________________________________________________________________________________________________
conv2d_14 (Conv2D)              (None, 8, 8, 512)    131072      activation_9[0][0]
__________________________________________________________________________________________________
add_5 (Add)                     (None, 8, 8, 512)    0           conv2d_13[0][0]
                                                                 conv2d_14[0][0]
__________________________________________________________________________________________________
batch_normalization_11 (BatchNo (None, 8, 8, 512)    2048        add_5[0][0]
__________________________________________________________________________________________________
activation_11 (Activation)      (None, 8, 8, 512)    0           batch_normalization_11[0][0]
__________________________________________________________________________________________________
conv2d_15 (Conv2D)              (None, 8, 8, 512)    2359296     activation_11[0][0]
__________________________________________________________________________________________________
batch_normalization_12 (BatchNo (None, 8, 8, 512)    2048        conv2d_15[0][0]
__________________________________________________________________________________________________
activation_12 (Activation)      (None, 8, 8, 512)    0           batch_normalization_12[0][0]
__________________________________________________________________________________________________
conv2d_16 (Conv2D)              (None, 8, 8, 512)    2359296     activation_12[0][0]
__________________________________________________________________________________________________
add_6 (Add)                     (None, 8, 8, 512)    0           conv2d_16[0][0]
                                                                 add_5[0][0]
__________________________________________________________________________________________________
batch_normalization_13 (BatchNo (None, 8, 8, 512)    2048        add_6[0][0]
__________________________________________________________________________________________________
activation_13 (Activation)      (None, 8, 8, 512)    0           batch_normalization_13[0][0]
__________________________________________________________________________________________________
average_pooling2d_1 (AveragePoo (None, 8, 8, 512)    0           activation_13[0][0]
__________________________________________________________________________________________________
flatten_1 (Flatten)             (None, 32768)        0           average_pooling2d_1[0][0]
__________________________________________________________________________________________________
pred_gender (Dense)             (None, 2)            65536       flatten_1[0][0]
__________________________________________________________________________________________________
pred_age (Dense)                (None, 101)          3309568     flatten_1[0][0]
==================================================================================================
Total params: 14,338,544
Trainable params: 14,331,344
Non-trainable params: 7,200
__________________________________________________________________________________________________
WARNING:tensorflow:From C:\Users\Gold\Anaconda3\envs\gpu\lib\site-packages\tensorflow\python\ops\math_ops.py:3066: to_int32 (from tensorflow.python.ops.math_ops) is deprecated a
…
